mnist.pt (torch, 26914 bytes, 8 tensors)

conv.weight f4 [3, 1, 3, 3]
-0.0026864747 0.1761284 -0.2738933 -0.24545062 -0.13138764 0.089931734 -0.003340921 0.26239637
-0.02680078 0.08395018 -0.09535317 -0.118715756 -0.25069296 -0.15480924 -0.16193327 0.24852903
0.1936765 0.19639374 -0.17417857 -0.1152866 0.2338001 0.17090228 -0.16105989 0.24595407
-0.12939778 0.003069817 0.28131726
00000000: 910f 30bb 015b 343e be3b 8cbe 6857 7bbe
00000010: 7b8a 06be 212e b83d 5af3 5abb d158 863e
00000020: 4f8d dbbc 12ee ab3d 8648 c3bd 3f21 f3bd
00000030: d45a 80be 5086 1ebe d6d1 25be 657e 7e3e
00000040: 2253 463e 711b 493e de5b 32be 621b ecbd
00000050: 4b69 6f3e 0201 2f3e e2ec 24be 62db 7b3e
00000060: da80 04be fc2e 493b d108 903e

conv.bias f4 [3]
-0.31119788 -0.121077865 -0.15817812
00000000: 5455 9fbe acf7 f7bd 72f9 21be

bn.weight f4 [3]
0.99987626 1.328721 1.5786463
00000000: e4f7 7f3f 8813 aa3f 1511 ca3f

bn.bias f4 [3]
0.002409231 -0.010280047 -0.06925548
00000000: 30e4 1d3b a46d 28bc d1d5 8dbd

bn.running_mean f4 [3]
2.3243766e-07 0.008437283 0.030832056
00000000: fa93 7934 883c 0a3c 8293 fc3c

bn.running_var f4 [3]
9.301897e-09 0.0020009263 0.00824208
00000000: 2dce 1f32 f921 033b ca09 073c

fc.weight f4 [10, 588]
-0.016076913 0.035628937 -0.02673231 -0.01898564 -0.02881328 -0.03862498 -0.024074884 0.035447374
0.018399902 0.019985728 0.0021670004 -0.021144545 0.0069752266 -0.038506776 -0.029799964 -0.021261932
0.026017606 0.024177648 -0.018291261 -0.0016560223 0.026345577 0.040988047 0.016365312 0.005569302
0.02764856 -0.024283633 0.007682868 -0.031974915 -0.028584225 -0.02130538 0.01865784 0.016557487
-0.024434222 0.012554141 0.022739219 -0.005187169 0.0015859847 0.009547759 0.025577592 0.039595887
-0.031781837 -0.015114793 0.016205624 0.034166947 0.035879668 0.0364238 0.008569208 -0.03583858
0.0037083726 -0.0257037 -0.038480327 0.0366437 0.031350866 -0.04115364 0.007717014 -0.006949007
-0.00678822 -0.018879408 0.015839245 -0.02443236 0.015114949 0.020888 0.029399104 0.015357406
-0.040817205 -0.026844488 0.02040011 0.008627196 -0.032174397 -0.02374823 0.038793996 0.027764967
-0.017989459 -0.01039292 -0.039291747 -0.0008263059 -0.031283405 -0.031952698 -0.0023926592 0.0070692217
-0.01694879 0.024671126 -0.025097564 0.037417457 0.028259456 -0.03477826 -0.010265653 0.0018589915
0.0060090707 0.009741519 0.01592008 0.0022318433 -0.020192506 0.019243224 -0.03955794 -0.02464165
-0.010325265 -0.02009005 -0.014428721 -0.033802483 -0.008778361 0.008848832 -0.026904875 -0.0021277135
0.029476328 -0.0042908164 0.0011195835 -0.0035833463 0.008342636 0.026213625 0.03906136 0.026187435
0.039151303 -0.002984331 -0.03709577 -0.019555246 0.028049318 -0.00037449395 -0.020550393 -0.031531915
-0.038659003 -0.034803666 -0.008366684 0.022613665 0.022293828 -0.03977436 0.025722504 -0.032272004
-0.008720248 -0.016746916 -0.008014902 -0.008134146 -0.036968224 -0.036348302 -0.0065868436 0.0005595484
-0.018754814 0.015532186 -0.03711964 -0.0027849646 0.036264792 -0.01665631 0.037235092 0.014933136
-0.037313506 0.026104692 -0.0047818525 -0.018244 0.03301994 -0.033331633 0.004516166 -0.008636056
0.029447675 0.0115098925 0.019813873 0.014562194 -0.009918845 -0.008674688 -0.0339864 0.022343442
0.03274125 0.028214324 -0.029098798 0.0018374332 -0.029072827 -0.022703419 -0.024032203 0.014091493
-0.024576878 -0.0009015609 0.0017330245 0.026581973 -0.031175451 -0.02831312 -0.023947911 0.028862536
-0.014825922 0.034783036 0.014910609 0.005220138 -0.00030882278 -0.008154086 0.0051723127 -0.009418613
-0.00029160077 0.0052600172 -0.03225945 -0.021616649 0.03329858 -0.033469476 -0.0029630745 0.040793665
0.014895328 0.0011657745 -0.03574025 0.020427208 -0.02916086 -0.0114932535 -0.013760672 -0.006895304
-0.0012413845 0.030824115 -0.00033202666 0.026521116 0.015457732 -0.03233519 0.014884866 -0.029859819
-0.017396271 0.012338697 0.013830005 0.031138306 -0.014605265 -0.006774119 0.009264014 -0.045636244
0.03470909 -0.009274795 0.008760727 -0.009258756 -0.02650821 -0.003951486 0.0309951 -0.011986738
-0.024270626 -0.015405641 -0.046010695 0.0035429243 -0.031078147 -0.029260041 -0.022701763 0.01772971
0.00827151 0.00087485224 -0.0056168665 -0.021167498 -0.016113685 0.011791699 0.03399166 0.009817311
-0.024352456 -0.02397839 -0.04476802 -0.009670875 -0.035651065 -0.021147203 0.05958468 -0.0028462377
-0.0029521945 0.006609631 -0.002601143 -0.02797299 -0.03341032 0.030558346 -0.00021585391 0.025099417
00000000: bbb3 83bc a6ef 113d b8fd dabc c687 9bbc
00000010: d409 ecbc 3a35 1ebd b138 c5bc 4431 113d
00000020: 64bb 963c 1cb9 a33c 3c04 0e3b 5337 adbc
00000030: 7190 e43b 48b9 1dbd 0e1f f4bc 812d aebc
00000040: e022 d53c 3410 c63c 8ed7 95bc e30e d9ba
00000050: aed2 d73c 15e3 273d 8c10 863c b17e b63b
00000060: 3c7f e23c 78ee c6bc 91c0 fb3b 21f8 02bd
00000070: 7729 eabc 9f88 aebc 54d8 983c 91a3 873c
00000080: 472a c8bc e2af 4d3c 9947 ba3c 21f9 a9bb
00000090: d1e0 cf3a 346e 1c3c 1988 d13c 4c2f 223d
000000a0: ac2d 02bd 09a4 77bc a8c1 843c a4f2 0b3d
000000b0: 8ff6 123d 1f31 153d dd65 0c3c 7acb 12bd
000000c0: 2b08 733b 9190 d2bc 8c9d 1dbd b417 163d
000000d0: c469 003d b890 28bd 01df fc3b 7fb4 e3bb
000000e0: b76f debb fda8 9abc 4ec1 813c 5f26 c8bc
000000f0: b1a4 773c 501d ab3c 64d6 f03c a19d 7b3c
00000100: f12f 27bd f9e8 dbbc 221e a73c 1559 0d3c
00000110: 4dc9 03bd a68b c2bc 74e6 1e3d 5b73 e33c
00000120: a15e 93bc 1147 2abc 62f0 20bd 739c 58ba
00000130: 0723 00bd d5e0 02bd 29ce 1cbb eea4 e73b
00000140: 30d8 8abc 1a1b ca3c 6899 cdbc 0c43 193d
00000150: 6080 e73c a673 0ebd 4531 28bc 67a9 f33a
00000160: bde7 c43b e49a 1f3c d46a 823c 1e44 123b
00000170: c16a a5bc f7a3 9d3c 8207 22bd 49dd c9bc
00000180: 4d2b 29bc e393 a4bc 7166 6cbc 7974 0abd
00000190: 1dd3 0fbc b1fa 103c 9d67 dcbc 1c71 0bbb
000001a0: 5778 f13c fa99 8cbb fdbe 923a 93d6 6abb
000001b0: 8daf 083c f5bd d63c cefe 1f3d 0887 d63c
000001c0: 1e5d 203d c494 43bb bcf1 17bd 5332 a0bc
000001d0: afc7 e53c ba57 c4b9 4c59 a8bc 9c27 01bd
000001e0: e758 1ebd 4a8e 0ebd 6b14 09bc 4b40 b93c
000001f0: 8ca1 b63c 70ea 22bd 00b8 d23c a62f 04bd
00000200: 5fdf 0ebc d430 89bc ef50 03bc 1545 05bc
00000210: fe6b 17bd f5e1 14bd 73d6 d7bb a8ae 123a
00000220: b2a3 99bc b67a 7e3c c30a 18bd f483 36bb
00000230: 648a 143d d072 88bc d383 183d 1daa 743c
00000240: 0cd6 18bd 82d9 d53c 16b1 9cbb 7174 95bc
00000250: eb3f 073d c086 08bd 59fc 933b 3f7e 0dbc
00000260: 403c f13c fd93 3c3c b450 a23c 4596 6e3c
00000270: a782 22bc 4720 0ebc 5335 0bbd 9809 b73c
00000280: b01b 063d ba21 e73c 9a60 eebc 07d6 f03a
00000290: 232a eebc 85fc b9bc 2fdf c4bc 01e0 663c
000002a0: 7355 c9bc ba56 6cba a726 e33a 70c2 d93c
000002b0: a963 ffbc ebf0 e7bc 692e c4bc 2071 ec3c
000002c0: 6de8 72bc a878 0e3d a14b 743c b10d ab3b
000002d0: 7ee9 a1b9 b798 05bc 817c a93b 8750 1abc
000002e0: fee1 98b9 395c ac3b 7c22 04bd 6615 b1bc
000002f0: 1864 083d 4a17 09bd 2430 42bb 4217 273d
00000300: 890b 743c e7cc 983a 5e64 12bd f656 a73c
00000310: c2e2 eebc 334e 3cbc 7174 61bc 01f2 e1bb
00000320: f4b5 a2ba db82 fc3c dd13 aeb9 d042 d93c
00000330: 6d42 7d3c e771 04bd a7df 733c 949c f4bc
00000340: a082 8ebc 3f28 4a3c 3f97 623c c315 ff3c
00000350: ec4a 6fbc 6ef9 ddbb 17c8 173c 12ed 3abd
00000360: 1e2b 0e3d 4ff5 17bc 2789 0f3c 0ab2 17bc
00000370: bf27 d9bc 787b 81bb 70e9 fd3c 0664 44bc
00000380: 31d3 c6bc f167 7cbc b675 3cbd 6830 683b
00000390: 9997 febc c1b2 efbc 0cf9 b9bc e63d 913c
000003a0: 3a85 073c 5756 653a b10d b8bb 7667 adbc
000003b0: d900 84bc f831 413c d73a 0b3d c9d8 203c
000003c0: cd7e c7bc 546e c4bc ac5e 37bd 9772 1ebc
000003d0: da06 12bd e63c adbc 110f 743d f287 3abb
000003e0: 9b79 41bb 9a95 d83b f077 2abb 9d27 e5bc
000003f0: 42d9 08bd 7f55 fa3c d856 62b9 4b9d cd3c

fc.bias f4 [10]
-0.03532336 -0.0065883934 -0.028380195 -0.040799513 0.0005622109 -0.031273194 -0.024368688 0.010893835
0.019424537 0.025204504
00000000: 3aaf 10bd 73e3 d7bb 957d e8bc 641d 27bd
00000010: 5661 133a 5218 00bd d8a0 c7bc 0e7c 323c
00000020: 3520 9f3c ad79 ce3c
